Namespace(T=16, device='cuda:0', b=16, epochs=64, j=8, data_dir='/datasets/DVSGesture/', out_dir='./logs', resume=None, amp=True, cupy=True, opt='adam', momentum=0.9, lr=0.001, channels=128)
DVSGestureNet(
  (conv_fc): Sequential(
    (0): Conv2d(2, 128, kernel_size=(3, 3), stride=(1, 1), padding=(1, 1), bias=False, step_mode=m)
    (1): BatchNorm2d(128, eps=1e-05, momentum=0.1, affine=True, track_running_stats=True, step_mode=m)
    (2): LIFNode(
      v_threshold=1.0, v_reset=0.0, detach_reset=True, step_mode=m, backend=cupy, tau=2.0
      (surrogate_function): ATan(alpha=2.0, spiking=True)
    )
    (3): MaxPool2d(kernel_size=2, stride=2, padding=0, dilation=1, ceil_mode=False, step_mode=m)
    (4): Conv2d(128, 128, kernel_size=(3, 3), stride=(1, 1), padding=(1, 1), bias=False, step_mode=m)
    (5): BatchNorm2d(128, eps=1e-05, momentum=0.1, affine=True, track_running_stats=True, step_mode=m)
    (6): LIFNode(
      v_threshold=1.0, v_reset=0.0, detach_reset=True, step_mode=m, backend=cupy, tau=2.0
      (surrogate_function): ATan(alpha=2.0, spiking=True)
    )
    (7): MaxPool2d(kernel_size=2, stride=2, padding=0, dilation=1, ceil_mode=False, step_mode=m)
    (8): Conv2d(128, 128, kernel_size=(3, 3), stride=(1, 1), padding=(1, 1), bias=False, step_mode=m)
    (9): BatchNorm2d(128, eps=1e-05, momentum=0.1, affine=True, track_running_stats=True, step_mode=m)
    (10): LIFNode(
      v_threshold=1.0, v_reset=0.0, detach_reset=True, step_mode=m, backend=cupy, tau=2.0
      (surrogate_function): ATan(alpha=2.0, spiking=True)
    )
    (11): MaxPool2d(kernel_size=2, stride=2, padding=0, dilation=1, ceil_mode=False, step_mode=m)
    (12): Conv2d(128, 128, kernel_size=(3, 3), stride=(1, 1), padding=(1, 1), bias=False, step_mode=m)
    (13): BatchNorm2d(128, eps=1e-05, momentum=0.1, affine=True, track_running_stats=True, step_mode=m)
    (14): LIFNode(
      v_threshold=1.0, v_reset=0.0, detach_reset=True, step_mode=m, backend=cupy, tau=2.0
      (surrogate_function): ATan(alpha=2.0, spiking=True)
    )
    (15): MaxPool2d(kernel_size=2, stride=2, padding=0, dilation=1, ceil_mode=False, step_mode=m)
    (16): Conv2d(128, 128, kernel_size=(3, 3), stride=(1, 1), padding=(1, 1), bias=False, step_mode=m)
    (17): BatchNorm2d(128, eps=1e-05, momentum=0.1, affine=True, track_running_stats=True, step_mode=m)
    (18): LIFNode(
      v_threshold=1.0, v_reset=0.0, detach_reset=True, step_mode=m, backend=cupy, tau=2.0
      (surrogate_function): ATan(alpha=2.0, spiking=True)
    )
    (19): MaxPool2d(kernel_size=2, stride=2, padding=0, dilation=1, ceil_mode=False, step_mode=m)
    (20): Flatten(start_dim=1, end_dim=-1, step_mode=m)
    (21): Dropout(p=0.5)
    (22): Linear(in_features=2048, out_features=512, bias=True)
    (23): LIFNode(
      v_threshold=1.0, v_reset=0.0, detach_reset=True, step_mode=m, backend=cupy, tau=2.0
      (surrogate_function): ATan(alpha=2.0, spiking=True)
    )
    (24): Dropout(p=0.5)
    (25): Linear(in_features=512, out_features=110, bias=True)
    (26): LIFNode(
      v_threshold=1.0, v_reset=0.0, detach_reset=True, step_mode=m, backend=cupy, tau=2.0
      (surrogate_function): ATan(alpha=2.0, spiking=True)
    )
    (27): VotingLayer(voting_size=10, step_mode=m)
  )
)
The directory [/datasets/DVSGesture/frames_number_16_split_by_number] already exists.
The directory [/datasets/DVSGesture/frames_number_16_split_by_number] already exists.
…
